data/expert_policy.pkl (torch, 283989 bytes, 8 tensors)

weight f4 [256, 11]
00000000: 9472 18be ae7c aabe af63 d6bd a8a1 63be
00000010: affa ccbc f1ba 9d3f 705c efbc a528 caba
00000020: acf4 e6bd 2ad3 17bf 6aa3 5dbd 0e3f d838
00000030: dc41 003e 6bb4 21be ed07 5abe 7a5d 9d3e
00000040: 3a14 73bf 4d3f ca3b 394c 30bc f5fc 01be
00000050: e3ac 3b3f 606e 5bbd 24fa 593d a067 9abd
00000060: f6f2 043d ed51 233e 5a95 f83e d98a 023f
00000070: 2b48 c1ba 4304 f03c 6f21 3cbf 6e4a ddbe
00000080: ac13 fd3c e0c4 433c 1dcd 4c3d f229 75be
00000090: afab 72bd 8c6b e43e 101a ccbe 2227 fabc
000000a0: 90c9 cf3c 08dc 96be 3826 8c3d 1456 853c
000000b0: 19aa 77bd ee9f 1c3d 7e1f 9cbe d7eb 8f3e
000000c0: cda5 b4bd 40d3 b9bd 9dbd c83c 3161 d7bb
000000d0: 60e4 d43d ebf1 5a3d 922f 1abd 2518 4c3d
000000e0: 223c ed3d 2b11 25be 6de3 26be 1580 ea3e
000000f0: 4d90 3cbc a469 473b 59c7 d33a 4a6d 35be
00000100: fce9 abbe 9e87 2c3d c8e5 b6bd 0497 223d
00000110: 5758 37be 2a2a 17bd 2ea1 1dbf 1a9f 1ebf
00000120: c865 3f3d e83c be3a b0e5 0d3f 8aa1 023f
00000130: b020 c4bb c09f 163e 6ca7 243e ff37 2fbd
00000140: 80ed 7c3a 1de2 7d3e 0b74 bf3e aec7 b7bc
00000150: ffd2 a13b 23b4 c7bd 518f 65be c000 5e3d
00000160: c887 83be 933d 7fbe 7c9d 73be 8df0 e33c
00000170: 3193 e2be 2a13 7cbe b691 ae3c 0955 dd3c
00000180: 958a 2f3f 7a8a 7a3d 0cf9 29bd c7b9 49be
00000190: c733 313d 1edc 17be 6227 c73d 1e2c a4bf
000001a0: 5ce9 08bf 8c00 7dbb 7fd8 2e3c bd30 243f
000001b0: 89a6 b53e 20ef a2bc 729c ffbd eef3 21be
000001c0: 36e0 82bd a859 a2be 0e6a 62be c8ba ea3e
000001d0: 6333 df3b 9092 44bc 8832 7f3e c8ea 2bbf
000001e0: 0ac8 343d e883 28bd f4a5 98bd ce4e 673d
000001f0: fd4a 2b3e f845 d4be ae2a 2c3e 0978 613c
00000200: 5fe4 dbbc fcaf 55bd fa49 d2bd 9cf5 543d
00000210: ac69 543d 8836 72be d982 4fbd b47c 33be
00000220: 1c86 8bbd dffd d0be 29ca 3dbd 57c2 d73b
00000230: 749a 683d 8394 ab3d 9af1 483d 5136 00be
00000240: e934 f93a adcb 9cbd 1da2 073e 02ea 0f3f
00000250: a359 c13e 90e6 1d3b 79f2 7dbb ee0a 17bf
00000260: 8ac3 1cbf 58e4 f9bc 6392 50bc 429e 04be
00000270: 2790 af3d 2b83 39bd c499 163f 0481 463f
00000280: 9e90 e13c 307f 0b3c 285f 7dbf a309 79bf
00000290: b433 563d b880 87bc 8fd7 d53d ed3a 873e
000002a0: ee57 72be 9409 a83e d9c7 c13e e7b6 7cbc
000002b0: 2433 8a3b b89b 84bd fd28 47bd de1f 163d
000002c0: f542 07be d3f5 47be 038c 5fbe ad2d 1ebe
000002d0: 3a30 5cbf bd4a 3c3f a34a 0cbd cb01 f2bb
000002e0: 737f 2d3f 6577 0ebf 46a4 483d a4c0 acbd
000002f0: db78 d73d 5d57 d4be eb3d 8abc f09d 37bf
00000300: e090 46bf 6676 30bd 2654 20bc 7da0 9e3e
00000310: 67b8 d43e 265e 7ebd e5bc 7dbd 757f 303e
00000320: 18ff 62be 42b0 9e3d 8503 233f 8302 80bf
00000330: 43ea 9d3c 0687 bcbc 125a 60bf e763 3e3f
00000340: d63d 59bd 1751 69be cf1a babe 6f78 a33c
00000350: f8db 0c3e cce4 023f 0620 1c3f 033b 8ebd
00000360: bb44 3ebc 8313 9bbe f48a 14bf 6417 41bd
00000370: ead6 f2bd 527e b53d 5976 cebd de00 ea3d
00000380: 809c c23e 4267 9c3e 6f44 473c d24c 8dbc
00000390: b40a 2dbe 8c40 69be ce38 253d 5140 ad3d
000003a0: 273c 193e 28ee 32bd 0f92 aabd 1208 22bf
000003b0: b73a adbd f3e8 313c b9ae e1ba 866e 083f
000003c0: ae63 0bbe 9a6b 63bd 8f30 1ebe 7e48 253e
000003d0: 8cd6 a8bd bf24 a4bd f490 b53d 749e dcbd
000003e0: d0e5 0e3c dfab a93c 545c 8ebe 2284 953e
000003f0: 58f0 7d3d f285 52be 0b96 97bd 5f9a 1abe
-0.14887458 -0.33298248 -0.10468232 -0.22229636 -0.025021879 1.2322675 -0.029218882 -0.001542349
-0.11277136 -0.59306586 -0.054110922 0.000103114275 0.12525123 -0.1579148 -0.21292086 0.3073538
-0.9495274 0.006172097 -0.01076036 -0.12694152 0.7331068 -0.05357206 0.05321707 -0.07539296
0.032458268 0.15949221 0.48551446 0.50993115 -0.0014746239 0.029298907 -0.73488516 -0.43220848
0.03089317 0.011948794 0.0500003 -0.23941782 -0.05924576 0.44613302 -0.39863634 -0.030536238
0.025364667 -0.29464746 0.06843227 0.016276397 -0.060464952 0.03823846 -0.30492777 0.2810962
-0.088206865 -0.09073496 0.024504477 -0.0065728654 0.103951216 0.053453367 -0.037643023 0.049827714
0.11583735 -0.1611983 -0.16297694 0.45800844 -0.011509013 0.0030427957 0.0016157433 -0.17717472
-0.33576953 0.042121522 -0.08930546 0.0396948 -0.17904793 -0.036905445 -0.61574066 -0.6196152
0.046727926 0.0014514001 0.554286 0.5102774 -0.005985342 0.14709377 0.16079491 -0.04277801
0.00096484274 0.24793287 0.3739322 -0.022434082 0.004938483 -0.09751155 -0.22417952 0.054199934
-0.2568953 -0.24925832 -0.23790544 0.027824664 -0.44252923 -0.24616686 0.021309715 0.027018087
0.68570834 0.061167218 -0.041497275 -0.19699775 0.04326227 -0.14830062 0.097243086 -1.2825963
-0.5348108 -0.0038605062 0.010671734 0.6413687 0.3547862 -0.019889414 -0.124810115 -0.15815708
-0.06390421 -0.31709027 -0.22110769 0.45845628 0.0068115457 -0.011997834 0.2492162 -0.6715512
0.044136085 -0.04114142 -0.07453528 0.05647164 0.16727825 -0.41459632 0.16813156 0.013761529
-0.026842294 -0.052169785 -0.10268016 0.051992044 0.05185859 -0.23653615 -0.050661895 -0.17528039
-0.06812689 -0.40818688 -0.046335373 0.0065844464 0.056787923 0.08377936 0.049058534 -0.1252072
0.0019012961 -0.076560356 0.13245435 0.5621644 0.377637 0.0024093725 -0.0038749261 -0.5900105
-0.6123587 -0.03050439 -0.012730214 -0.12950996 0.08572417 -0.045291107 0.5882838 0.7754061
0.02753478 0.008514211 -0.9897332 -0.9728033 0.0522954 -0.01654087 0.10441505 0.26412144
-0.23666355 0.32819808 0.37847784 -0.015424467 0.004217522 -0.064750135 -0.048623074 0.036651485
-0.13209136 -0.19527368 -0.21830754 -0.15447111 -0.8601109 0.7355154 -0.034250867 -0.0073854676
0.677726 -0.5565093 0.04898479 -0.08435181 0.10521098 -0.41472903 -0.016875228 -0.7172537
-0.7756481 -0.043081664 -0.009785688 0.30981818 0.41546938 -0.062101506 -0.061947722 0.17236121
-0.22167623 0.07748462 0.63677245 -1.0000767 0.019276744 -0.023013603 -0.87637436 0.7437119
-0.053037487 -0.2278484 -0.36348578 0.019954888 0.13755786 0.51130366 0.60986364 -0.06944849
-0.011613066 -0.30288324 -0.58024526 -0.047141448 -0.11857398 0.08861984 -0.10081167 0.11425947
0.38010025 0.3054753 0.012162312 -0.017248545 -0.16898614 -0.22778529 0.040337376 0.08459533
0.14964353 -0.043684155 -0.0832864 -0.63293564 -0.084584646 0.010858762 -0.0017218209 0.53293645
-0.13612244 -0.05552254 -0.15448211 0.16140935 -0.082440466 -0.08014821 0.08865538 -0.1077241
0.008721784 0.020711837 -0.27804816 0.29202372 0.061996788 -0.20558909 -0.07401665 -0.1509795

bias f4 [256]
00000000: e4f6 94be fe7f 04be 6ee2 05be 33e8 55be
00000010: 138a 15be 92db 4bbe fe65 8cbe c7dc 8ebe
00000020: 4e01 0cbe 045d 9dbe 235d 37be 0c07 11be
00000030: bac6 83be 5657 42bc f0ce 31bd 48b9 d4bd
00000040: 0d88 94be 6e5d 9abe 3a43 72be dd53 a1be
00000050: 5066 d4bb ca8c febd b999 e9bd e03d 37be
00000060: b946 19be 605b 60bd e117 4cbe 0cf9 0abe
00000070: 6bd4 5bbe 4512 77be 70c4 00be 0acb 15be
00000080: 3e95 43be f304 d6bd 4f41 95be d109 1a3c
00000090: ff12 23be 649e f1bd 8a67 46be 12ce 6dbe
000000a0: e3b4 26be a098 b5be 6f3c 4dbe 2324 45be
000000b0: 1444 1dbe b283 c0bd 28c1 07be ebe2 c9be
000000c0: 7672 0fbe 8f00 30be cb29 19be 9e09 22be
000000d0: 9fba f0bd 65ba c4bd c25b 9dbe 8847 99be
000000e0: ff32 d6bd e479 dcbe 22cd 35be 8399 92be
000000f0: 4ebf 05be 9c6c 90be 96a2 8bbe df9d efbd
00000100: 1878 bfbd f7e8 ffbd 2089 38be c0eb 0abd
00000110: eb56 24be f546 1dbe eabe f5bd 2b0a 11be
00000120: b414 04be 01d4 4fbe dffb 2ebe fd62 4ebe
00000130: bfdc 21bd 2482 57be 14b4 1dbd 15e7 79be
00000140: 6065 433c 63bd e7bd 665d a7be 7664 0dbe
00000150: d31c a1bd f4e9 cbbd 07f3 d9bd f243 6ebe
00000160: 0b82 4fbe cceb c0bb 677c 30be 6017 96be
00000170: 565b 25be 7e84 50be 2b06 e4bd c4ad a9bd
00000180: e1b0 27be e9b3 1bbe 764d 3cbe 3129 07be
00000190: 6b07 6fbe a16d 84bc 3ce2 eabd a39f 4ebe
000001a0: 7773 26be 5fc6 c7bd ddba 3fbe d65e 67be
000001b0: a58e 38be a4de ddbd 290d 3fbe b436 42bd
000001c0: 43e4 81be 274f cfbd 423f 65bd 862f 3bbe
000001d0: 5c44 d7bd a96e 23be 05e0 41be 2a1b 93bb
000001e0: 048e 2cbe cd0c c2be 8e16 8fbd cb79 f4bd
000001f0: 925f 73be 50dd f4bd f949 283c 8d98 91be
00000200: b073 dcbd ec95 05be 5476 7dbd 95da 9cbd
00000210: 9d6f cebd 2e63 51be 4be5 a8bd 73d8 53be
00000220: 9a35 c1bd 1b0d 50bd e3e7 ac3a b55d 70be
00000230: 685a 35be 8d83 0cbe 581e 11be 1c52 5bbd
00000240: 8fe3 02be 0dcc 58be 1cb0 86be acf8 13be
00000250: 6101 abbd 0646 65be 5fa8 a9be eba8 a7be
00000260: 9401 3fbe e4be a2be 3159 90be b0a4 2fbe
00000270: 2de2 85be 797b a1be 5c94 47be 8cba 8a3c
00000280: c525 a4bd 831f f8bd b7e6 e1bd ab00 4bbe
00000290: c5e8 ebbd 201f 87be d18f 0cbe b5f6 37be
000002a0: d7e1 74be f600 77be 9d5d 79be b5aa f9bd
000002b0: 6606 f8bd 7071 b2bd 1572 10be cca3 9ebd
000002c0: b19f 47be c68f 0ebe c640 7dbe 6f0a 63be
000002d0: 7429 b1be 9e6b acbd 492e 5ebe 2c43 a8bd
000002e0: 4083 9abd 8e77 a8be 0e1c 84bd 4403 94be
000002f0: 25d0 3cbe d8e8 8abe 53e0 a8be 7685 99be
00000300: 4ebe 62be 7609 c0bd e065 44be 7a45 95be
00000310: 0b1e 42be 0d78 8fbd 715c debd 6590 81bd
00000320: 7cce 5dbe 080e 80be ec61 04be cec4 3ebe
00000330: 4157 61be 4306 9cbd c0cb 67bd 075f a1be
00000340: 9052 00be 5bd8 bcbe 3c4b 5abe 9183 5a3b
00000350: 8009 c7bd 3f9e 01be b26b 77be 9406 42bd
00000360: 5560 50bd e6bb 28be 716d cdbe f7f5 1bbe
00000370: 9e9f 08be 4d79 d0bd eb40 f4be 514d d9bd
00000380: 02dc 54be a392 0bbe 2f8f f0bd 6d26 47be
00000390: 2732 75be 0979 dabd 2a84 3dbe 1e6f e3bd
000003a0: 97de 38be 4e2d e5bd 735a a6bc 5346 c7bd
000003b0: ed45 5fbe 616b b4bd ea06 a5bd 50a0 3fbe
000003c0: b7f8 03be c2a4 18be ebb3 f4bc 8fae cabd
000003d0: 0e92 4cbe 2c6b 86bd dcd2 37be bfb3 b3bd
000003e0: b79b babd e699 bebe 0939 01be f77b c6be
000003f0: d3cd b6bd 4198 bbbd 876b 05be 5650 4abe
-0.29094613 -0.1293945 -0.13074657 -0.20889358 -0.14603452 -0.19907978 -0.27421564 -0.27902815
-0.13672373 -0.30735028 -0.17906623 -0.14162844 -0.25737554 -0.011861643 -0.04341024 -0.10386902
-0.29010049 -0.30149406 -0.23658457 -0.31509295 -0.006481923 -0.12429197 -0.114062734 -0.17894697
-0.14968385 -0.054774642 -0.19930984 -0.13571566 -0.2146775 -0.24128063 -0.12574935 -0.14628235
-0.190999 -0.10450163 -0.2915139 0.0094017545 -0.15925215 -0.11797789 -0.19375435 -0.23223141
-0.1627994 -0.35468006 -0.20042585 -0.19252066 -0.15358001 -0.09400119 -0.13257277 -0.39430937
-0.14008507 -0.17187713 -0.14957349 -0.15823981 -0.11754345 -0.096058644 -0.30734068 -0.29937387
-0.104589455 -0.43061745 -0.17754033 -0.28632745 -0.13061258 -0.28207862 -0.2727248 -0.117000334
-0.09349078 -0.124956064 -0.18021059 -0.033916235 -0.16048782 -0.15359099 -0.119993046 -0.14164035
-0.12898523 -0.20295717 -0.17088269 -0.20154949 -0.03951716 -0.21045738 -0.038501814 -0.24404557
0.011926025 -0.113154195 -0.32688445 -0.13807854 -0.07866826 -0.099567324 -0.10642057 -0.23268107
-0.20264451 -0.005887484 -0.17234956 -0.2931471 -0.16148123 -0.20363042 -0.11133989 -0.08285096
-0.16376068 -0.15205349 -0.18388924 -0.13199307 -0.23342673 -0.016165556 -0.11468932 -0.20178084
-0.16254984 -0.09754633 -0.18723626 -0.22594771 -0.18023165 -0.10833481 -0.18657364 -0.04741545
-0.25369462 -0.10122519 -0.05596853 -0.18279848 -0.105110854 -0.15960182 -0.18933113 -0.004489322
-0.1685105 -0.3790039 -0.06986724 -0.11937293 -0.23766926 -0.119562745 0.010271543 -0.284367
-0.10764253 -0.13045472 -0.061880425 -0.07658879 -0.10079882 -0.2044799 -0.08246859 -0.20688038
-0.09434052 -0.05079375 0.0013191666 -0.23473246 -0.17710268 -0.13722058 -0.14171731 -0.053545102
-0.12782119 -0.21171589 -0.26306236 -0.1445033 -0.083498724 -0.22389993 -0.3313627 -0.32746062
-0.18652946 -0.31786263 -0.28193048 -0.17152667 -0.2614912 -0.31539515 -0.19490188 0.016934656
-0.080150165 -0.121153854 -0.110303335 -0.19824474 -0.11519007 -0.26390934 -0.13726737 -0.17965205
-0.23914276 -0.2412146 -0.24352117 -0.12190763 -0.121105954 -0.08713043 -0.14106019 -0.077460855
-0.19494511 -0.13922033 -0.2473174 -0.22171949 -0.3460194 -0.08418964 -0.21697344 -0.08215937
-0.07544565 -0.32903713 -0.064506635 -0.2890874 -0.18438776 -0.2713077 -0.32983646 -0.29984635
-0.22142908 -0.093768045 -0.19179487 -0.2915457 -0.18956773 -0.0700532 -0.108574755 -0.06326369
-0.21660799 -0.25010705 -0.12927979 -0.18629763 -0.22005941 -0.07618382 -0.056590796 -0.31517813
-0.12531495 -0.36883816 -0.21317762 0.003334258 -0.09718609 -0.12658022 -0.24162176 -0.047369555
-0.05087312 -0.16477928 -0.4012256 -0.15230547 -0.13342139 -0.10179386 -0.47705778 -0.1061045
-0.20787051 -0.13630156 -0.1174606 -0.19448252 -0.23944913 -0.10667617 -0.18507448 -0.11105178
-0.18053661 -0.11190282 -0.020306801 -0.0973021 -0.21804018 -0.088095434 -0.080579594 -0.18713498
-0.12887846 -0.149066 -0.029870948 -0.09896576 -0.1997759 -0.0656341 -0.1795153 -0.08774518
-0.091117315 -0.3722679 -0.12619413 -0.38766453 -0.089259766 -0.091598995 -0.130293 -0.19757208

weight f4 [256, 256]
00000000: 7e46 fe3d f904 d23d 17b8 52be 4119 6ebd
00000010: 7b88 7abd b99b 20bd cf3e 1bbf 440d aabb
00000020: fab7 a93c 2754 04be 65f9 66be f933 06bf
00000030: 684e 8dbe 1442 bebd 719d a4be 4652 70be
00000040: a51b 473d 655d 5cbe d7d0 d13d a930 8f3d
00000050: ef1d b1be 7a68 b33d ebf4 4ebe 0b90 b3bc
00000060: 3c1e 21bf fb2b f03d 8582 85bb 2636 9fbd
00000070: 2f3a 2ebd 3578 64bd ae19 d0be 5d8e f33d
00000080: 32cd 3ebe 6c64 7cbc caf3 16bc 5ea2 debd
00000090: 2674 243d 97fb d9bc 3ec7 54bd 8faf f13b
000000a0: 8905 51be 0a42 d33d 418c ce3d 836e d53c
000000b0: b536 db3c 4f08 4a3c f8fa bf3d 9df8 07bb
000000c0: 3558 c53b 8b42 163e ef57 a2bd 24cf 61bd
000000d0: 764d a2be 61d1 83be 26d3 bbbd 8359 03be
000000e0: 5adb 90bd 8c65 173e 1f01 683d b2b6 7b3d
000000f0: 6d45 3cbe f1ac 3f3e ec09 2bbd 276b fe3b
00000100: 881e f0be 9f7e 3ebd cbfe 8dbd d7d2 c7bb
00000110: afe6 2fbd a03d 853c ae63 80bd bbdc eabd
00000120: 3c48 c83d b926 52bd 9ee3 1dbc 1263 63be
00000130: 26d5 86be a2db 11be 55cf 203e ed10 80b9
00000140: 012d a53d 0a84 5cbe d46e 2c3d f7e6 48be
00000150: 6002 9c3d 6c0e 68bd 40c3 733c b5e2 c2be
00000160: 7775 dabd b7de 1abe d3e5 de3b 6aa1 b43c
00000170: 9513 6cbe 2386 f6bc 0747 90bd 7c55 40be
00000180: a9f0 9fbc 93f6 233d c4bd a33d c393 43bd
00000190: 3c8c 1d3d dcb9 5abe 2d94 84bc 1277 54bf
000001a0: 65a3 d6bd 009f c2be b555 32be 9841 94be
000001b0: dbeb 823d 5ce1 18bf b450 553c 2f60 d6be
000001c0: b0ea ecbd aa9f 0b3e 483f 09bf 35a8 ed3d
000001d0: 43e9 6abe 450d 66bd 3393 9fbd d416 e23d
000001e0: bafe 643d 2f38 05bd d6bf 1fbe 8962 c9bd
000001f0: bf76 34bd 29c2 bcbd 0054 0abe e76e ed3d
00000200: a37e 09be 36c9 82bc e5d5 193e 5e28 8c3d
00000210: cca7 c7bc 8a92 393d cc46 60bd 1655 91bd
00000220: b43e bbbe de03 93bd ed75 ffbc 4f79 82bd
00000230: 394f 993d c2fc 6cbd 7cf8 863e d86a 3fbe
00000240: 8a26 5abd b6ca 033e 2721 90be eac5 c3be
00000250: d07e 1abe 44e9 153c d7ad 2b3c 4373 c5bd
00000260: c02f 48be 40bb 953d 8081 4cbd e2ae 90bd
00000270: 00fa 513e 8e4c a53d 2640 37bd 7d28 b0be
00000280: 96e5 083d f200 37bd 864f 9cbc bf33 a13e
00000290: 4d71 03bd ccee 143e 5656 7dbe 6850 b2bd
000002a0: 4a73 4dbe 0878 743d a197 ff3c ac7d ffbd
000002b0: ff2f eebd d992 96bc 1b9a 5ebe fff9 8f3d
000002c0: 21f9 343d 6809 20bf 8afd c63d 592e 823c
000002d0: 8e44 ab3d 7658 443e 435c 9c3d 8ee3 f53d
000002e0: 9326 2ebe 2221 18be 536d 083c d193 3fbe
000002f0: 4afa cdbe 0d2b 7dbd 03e2 a7bc eda6 f23c
00000300: 8b18 3abd dab6 3abe 2418 b5bc e3cc c23a
00000310: 8d5f 10be de6d 983d 7e0e 93bd 1eaa 03be
00000320: 65f3 22be 7797 65bc 9e4c 633d a4bf e53d
00000330: 33c9 5a3e e5a1 b63d 3503 9fb9 2489 86bd
00000340: 24d2 8fbe d8b9 0a3e e0f8 a93d 441c f4bd
00000350: 39eb 45bd 534e d83d 8383 24be 89d5 87bc
00000360: 8242 9dbd 3a0d 123e 173e 29be 7005 a0bd
00000370: 7322 f03d 1497 8cbd c491 2bbe 1b2d 3cbe
00000380: 776b 23bd 7922 33bc 289d 2dbd 6b83 61be
00000390: 78f4 823d 0b14 d2bd 3217 c0bd 8b86 ab3d
000003a0: c140 4abd 9c77 17bd e51d ec3d 6ca6 ecbd
000003b0: b218 1fbc 23ce 0a3c 081d 6dbe 1fde 1d3d
000003c0: d0ad 493d 2392 cfbe 743a d8be 9e0b adbd
000003d0: cffb 8cbe 5361 ad3d ea30 6ebe 8939 38be
000003e0: 01bd 16be de34 a8bb 3ce6 aebd def3 10bd
000003f0: e06e a7bc cbfb 5d3d 4a31 14be ff91 15be
0.12415789 0.10254855 -0.20578037 -0.058129553 -0.061165314 -0.03921101 -0.60642713 -0.0051895697
0.02071761 -0.12922727 -0.22556074 -0.52423054 -0.27598882 -0.09289947 -0.32151368 -0.23468885
0.04861035 -0.21520002 0.10244911 0.06991703 -0.3459315 0.08760162 -0.20210616 -0.021919271
-0.6293676 0.117271386 -0.004074397 -0.07774 -0.042535957 -0.0557787 -0.40644592 0.11892388
-0.18632963 -0.015404802 -0.009213397 -0.10870813 0.04014983 -0.026609225 -0.051947825 0.0073756645
-0.20412268 0.1031533 0.10085345 0.026053673 0.026759485 0.0123310825 0.0937404 -0.002074755
0.006022478 0.14673822 -0.07926928 -0.055129185 -0.31699723 -0.2574568 -0.09171133 -0.12827115
-0.07073088 0.14784831 0.056641694 0.06145353 -0.18385859 0.18718316 -0.04175751 0.0077642384
-0.46898293 -0.046507474 -0.069333635 -0.006098132 -0.042944606 0.016264737 -0.062690124 -0.11467882
0.097794026 -0.05130646 -0.009636788 -0.22205761 -0.26334494 -0.1424394 0.15704091 -0.00024426673
0.080652244 -0.21534744 0.04209788 -0.19619356 0.076176405 -0.05665438 0.014878094 -0.3806359
-0.10666936 -0.15124021 0.0068022995 0.022049624 -0.23054345 -0.030093258 -0.070447974 -0.1878261
-0.019523935 0.040030073 0.07995179 -0.04774834 0.038463816 -0.21359962 -0.016183937 -0.82994187
-0.10480384 -0.38011932 -0.17415507 -0.28956294 0.06392642 -0.5971887 0.013019729 -0.41870257
-0.115682006 0.13635126 -0.53612185 0.116043486 -0.22940545 -0.056165 -0.07791748 0.1103951
0.05590699 -0.032524284 -0.15600523 -0.09833247 -0.044058558 -0.092167206 -0.13508606 0.115934186
-0.13427214 -0.015965085 0.15023 0.06843637 -0.024372004 0.045305766 -0.054755017 -0.07096307
-0.36571276 -0.07178472 -0.031184161 -0.06370794 0.07485814 -0.057858236 0.26361454 -0.18693101
-0.05325941 0.12870297 -0.28150293 -0.38236934 -0.15087438 0.009149853 0.010478458 -0.09641125
-0.19549465 0.07311106 -0.04992819 -0.07064606 0.20505524 0.08071242 -0.04473891 -0.3440589
0.033422075 -0.044678636 -0.019080888 0.31484792 -0.032090474 0.14544219 -0.24739966 -0.087067425
-0.2006351 0.059684783 0.031200232 -0.12475142 -0.11630248 -0.01838057 -0.21738474 0.07030105
0.0441829 -0.6251435 0.097163275 0.01589124 0.08362685 0.1917437 0.07634785 0.12006293
-0.17006902 -0.14856389 0.008326846 -0.18708731 -0.40230018 -0.061808635 -0.020493513 0.029620612
-0.045433562 -0.18233815 -0.022106238 0.0014862086 -0.1409895 0.074428305 -0.071804985 -0.12857863
-0.1591316 -0.014013163 0.05549299 0.11218193 0.21365814 0.08917598 -0.00030329233 -0.06569126
-0.28090012 0.13547456 0.08299422 -0.11919454 -0.04832003 0.10561814 -0.16065793 -0.016581314
-0.07678701 0.14262858 -0.16527592 -0.07813537 0.11725321 -0.06864753 -0.16754824 -0.18376581
-0.03989741 -0.010933512 -0.042386204 -0.22022788 0.06394285 -0.10257729 -0.09379424 0.083752714
-0.04937816 -0.036979303 0.115291394 -0.1155518 -0.009710478 0.008471998 -0.23155606 0.03854191
0.049238026 -0.4054118 -0.42232096 -0.084494814 -0.27535865 0.08465829 -0.23260847 -0.17990698
-0.14720537 -0.0051332554 -0.085400075 -0.03538882 -0.020438612 0.054195207 -0.14471927 -0.14606474

bias f4 [256]
00000000: e530 ef3d e82d 52bd e3bf 903d a906 393d
00000010: 883e bfbc 9246 303d 9872 ec3d f30b 4c3d
00000020: 9370 db3d d85f e63d ba67 213d 27c3 9a3d
00000030: 4b74 133e d546 663e f790 e23d bbc3 793c
00000040: 1bb6 5b3d 6741 8abc e5ed 763d 90f5 d13d
00000050: 2a29 aa3c 83ba 46bc e2ef 9a3d 065a 813d
00000060: 32a8 0a3d 15d3 1b3d f048 e53d 49ad 213c
00000070: 37ff 463c 8124 e73c a264 8f3d 0f2d 10bd
00000080: 86c0 ba3d 37e0 bc3c 85e9 c53c 64bb 093d
00000090: c4c0 6d3d 82b9 cabc a6f4 133d 876b ac3d
000000a0: 5b8d ce3d e563 7e3d d196 6fbc c77f f33d
000000b0: a404 de3d 4465 113d 76dc 253d f43a 6d3c
000000c0: 637d 803e bee6 b5bc 945a 68bc b0ba 143d
000000d0: e3fd 163d 3db0 963c e94c fcbb e628 7a3d
000000e0: ed39 1d3e 73a7 d33d 0baf 123d 58ed e33d
000000f0: 3bb3 c5bc 1866 f73c 20cd 2f3c 8001 dd3d
00000100: 4a14 983d 07bf f53d abff 6c3e 64a0 ca3d
00000110: d874 b03d 13c4 f93d 7d32 793d 2c07 90bc
00000120: 1006 ab3d ca77 c63d 81f8 b8bc b0f4 903d
00000130: 7c49 dd3d d5a1 fd3c 5b90 98bc f323 cb3d
00000140: c465 ca3d d269 6e3d 0097 d63d bb6a ffbc
00000150: 19f2 f0bc 745f e63c d794 823d b3ad 7bbc
00000160: 002f 9f3d ac00 d43d fdec a13d dc1d 6e3d
00000170: f572 da3d 1729 06be 7044 e4bc 7a90 8d3d
00000180: 592d 693d 1a41 f73c 8e9c 1bbd e648 b23d
00000190: 7629 de3d 3bb8 c53d accc 86bc ae3a b13d
000001a0: 9daa bbbd 160e ec3d 8272 3d3d de14 003e
000001b0: cd78 4c3d 0cbb 403d f22c 763e 2fb6 3d3d
000001c0: 8737 eb3d 5356 bb3c c1ca 7b3d d7b5 383d
000001d0: 8346 343d c8b5 8e3e 55c7 193d 6f61 103e
000001e0: 7356 e03d 5c28 653d efeb 813d 181c 92bc
000001f0: bc4b 5a3d 1fb9 b43c f0ca 5abb 6a48 9d3d
00000200: be07 133d 295a 053d 1fbf e6bc 81bb 943d
00000210: 64d3 e73d 97a5 133d 10f7 fd3d 843a 8abc
00000220: 63c1 a93d ee4d fa3d 4d51 883d b055 d73d
00000230: 5a48 cbbc 68af c63d 13e3 9d3d 45bf dc3d
00000240: 6428 0c3d 8e70 303d 471b 103e 2a35 b23d
00000250: 4cf7 debc 77af ad3d 6184 9d3d 4c4b 723d
00000260: 386b 973c 877d b8bc df77 863d 4b68 1bbd
00000270: 3fdb 203d 0c55 c93d 977c f63b 985c 603d
00000280: c2cf 9f3d 4fc9 e73d b397 b03d 5ba7 cf3c
00000290: 0564 5f3d ebe5 d63d 658b c93d e107 bd3d
000002a0: 6819 1e3d e21a d23c 2506 10be 11ee 013d
000002b0: d2c3 1f3e 701d a33d 9154 e23d 3fbf b7bc
000002c0: 1140 c73e 3336 4a3d 34ab 703d af5c dbbc
000002d0: b127 c23d f0ca a43d c470 663d 68d9 f93c
000002e0: 092a 6a3c d866 c0bd 9ec4 5ebc 72f0 cc3c
000002f0: 36cd 153d 1576 db3d 9990 883d dee3 233c
00000300: 6f7b 953c f6aa 263d b048 b73d b85b 403e
00000310: eb37 423d 720a 943d 1b3d ce3d e75c a13d
00000320: de7b c93d aac7 f23d 907d da3d 1dbe 693d
00000330: 4e08 83bc de1d 213e 5e19 34bd 1a30 733d
00000340: 7708 1e3d f277 b03c c875 a13a cbf8 a53c
00000350: 534d c73c 1604 883b 9320 283d 2429 3fbd
00000360: 0a96 233d 59b0 e43d 7714 39bd a85a c53d
00000370: 2dea 033c 3a71 be3d f71e e13d dc3d 50bd
00000380: d67d 833d 1a22 d6bc 7c79 c23b be9b 833d
00000390: d1c0 983c 02c1 e7bc 965e 1c3e 2896 84bb
000003a0: 2404 8d3d cf53 c53d 02d2 103d e5ae b5bb
000003b0: 1bfe f93d fbb3 103c 0f1c 933c cb2b f13c
000003c0: 0a2a 023d e838 85bc 363d a83a 79e3 133d
000003d0: e194 ac3d a550 8c3d bb8d fd3d bc34 133d
000003e0: 0233 bc3d 902a 3fbc 6688 4d3d 43ae 933d
000003f0: cf94 5e3c cef0 b73d 0294 92bd c244 f23d
0.11679248 -0.05131331 0.070678495 0.045172367 -0.023345247 0.04303605 0.115452945 0.049816083
0.10714831 0.112487495 0.039405562 0.075567536 0.14399831 0.22487958 0.11062806 0.01524442
0.053640466 -0.01687689 0.060285468 0.102519155 0.020771582 -0.012129429 0.07565285 0.06315999
0.03385181 0.0380431 0.11195552 0.009867975 0.012145809 0.028215649 0.07001616 -0.03519922
0.09118752 0.023056133 0.024159202 0.033625975 0.058045164 -0.02474666 0.036121987 0.08418947
0.10085555 0.062106986 -0.01462336 0.11889606 0.10840729 0.035496965 0.04049345 0.014479388
0.25095662 -0.022204753 -0.014181752 0.03631085 0.03686322 0.018394584 -0.007699598 0.06107416
0.15354128 0.10334673 0.035811465 0.11129254 -0.024133315 0.03020005 0.010730058 0.10791302
0.07425745 0.11999326 0.23144405 0.09893873 0.08616036 0.12195601 0.060839165 -0.017581545
0.08350766 0.09690817 -0.022579433 0.070779204 0.10805032 0.030960957 -0.018623522 0.09918966
0.098826915 0.058206387 0.1047802 -0.031178823 -0.029412316 0.028121687 0.06376045 -0.015361237
0.077726364 0.10351691 0.0790653 0.058133945 0.106664576 -0.13101612 -0.027864665 0.06912322
0.056928013 0.03018241 -0.0379911 0.087053105 0.10847752 0.0965428 -0.016455017 0.086537704
-0.09163401 0.11526124 0.04625178 0.1250796 0.049919892 0.04705338 0.24040583 0.046316322
0.114852004 0.022868311 0.061472658 0.04509529 0.044012558 0.27873063 0.037543613 0.14099668
0.10953989 0.055946693 0.06343829 -0.017835662 0.053294882 0.022060929 -0.003338512 0.076798275
0.035896055 0.032556687 -0.028167306 0.07262326 0.113196164 0.03604659 0.12400639 -0.016873606
0.08288839 0.12221895 0.06656132 0.105143905 -0.024814773 0.09701425 0.077093266 0.10778669
0.034218207 0.04307609 0.14072905 0.087015465 -0.02721753 0.08480733 0.07691265 0.05915384
0.018483743 -0.022520794 0.06565832 -0.03794126 0.03927159 0.098306745 0.0075221765 0.054775804
0.078032985 0.113176934 0.08622684 0.025348356 0.054538745 0.10493072 0.098410405 0.092300184
0.038598448 0.025647584 -0.14064844 0.03172118 0.15602043 0.07964599 0.11051286 -0.02243006
0.38916066 0.049368095 0.058757022 -0.026777593 0.09480227 0.0804652 0.056259885 0.030499175
0.0142922485 -0.09394616 -0.013596682 0.025016997 0.036572658 0.10715882 0.06668205 0.010003058
0.018247334 0.040690385 0.08949411 0.18784988 0.04741661 0.07228555 0.10070249 0.07879048
0.09838079 0.11854489 0.106684804 0.05706607 -0.01599517 0.1573405 -0.043969505 0.059372045
0.03858229 0.02154157 0.0012318427 0.020260235 0.024328863 0.0041508777 0.04104669 -0.046670094
0.03993801 0.11166448 -0.045185532 0.09636432 0.008051437 0.0929894 0.10992234 -0.050840244
0.06420486 -0.026139308 0.005934892 0.0642619 0.01864663 -0.028290275 0.15270457 -0.0040462203
0.068855554 0.09635126 0.03535653 -0.0055445307 0.1220667 0.008831973 0.017957715 0.029439827
0.031778373 -0.016262487 0.0012835625 0.036105607 0.08426834 0.06851319 0.123805486 0.035938963
0.091894165 -0.011667863 0.050178908 0.07210972 0.013585283 0.08981477 -0.071571365 0.11829521

weight f4 [2, 256]
00000000: f1b9 88be fde6 18bd 63ff 01be 1800 d6bd
00000010: 5b3d 443b aa3d 173e 772b e2bd 66b2 0abe
00000020: f2b3 85bd d806 d13d 2edc 2b3f e8e3 24be
00000030: 4278 ff3c c5df 603b e725 00be 77c1 63be
00000040: e5ee 1e3e ec3a 12bb 47bd c4bd 0383 923c
00000050: 861a 1cbf ff39 95bb df64 2bbe 2f8d 0abe
00000060: a57f 453d 23fd 3abe 7e5b 32be 1866 4a3c
00000070: d6db 10b9 8006 dcbc 86f9 28bd c8eb 743e
00000080: 07f4 76bc 315b 5f3c 0344 233d 1738 93be
00000090: 5f58 3d3e 612f 5bbd 25be 1f3d 2f9a 2fbc
000000a0: 1ac3 043c 1ba7 81bd bccc 35bd 8860 64bd
000000b0: 72b0 c9bd 7944 973d d99f 713d e5f2 353e
000000c0: e0f9 043c d00c 58bb 8d9f 8bbe 1287 6d3e
000000d0: fe75 c43e 08b1 353b f45c 4d3e 7394 bfbd
000000e0: e353 b63d 75d3 83be 1b9d 1cbd efbd 153e
000000f0: 31c0 15be 95b4 ab3b 6129 923d 94ed 7a3e
00000100: 5c9c fe3b 38a1 483e 3fb1 de3a 8bf8 00be
00000110: f358 7d3d 0a31 b63b 52d0 2bbd 4603 b73d
00000120: 1dc9 14be 096d ce3d 8ba1 613e f734 f53d
00000130: fedb 83bd c953 8d3e 0e29 e43b 0515 00bc
00000140: c29c 6a3d d129 4cbd 7fa0 63bc 6b68 8bbb
00000150: 1e4d c7bb 096d 27be e9b1 293e 8479 733c
00000160: af8a 79bd 0ade 8eba 5711 e1bc 0414 3b3e
00000170: 4c57 2fbd d409 733e 5dde 2ebb 0bae f63d
00000180: a519 86bd 3091 29bd 8d3b a33d 34d7 7abd
00000190: 3ba0 b2bd 2aa0 ea3d 9dca 0eba 1e34 c93d
000001a0: 7a16 9f3d 0d81 81bd d9ef c5bd f474 45bc
000001b0: 1912 9fbe 6652 9e3f bcf7 213b 4733 5f3c
000001c0: 650c 5c3e bf09 1f3e 6c2a 263e 439f babd
000001d0: 9c8a 9cbd 2621 c43b baac b63a 0ba1 763d
000001e0: 67c7 2f3d 0954 9ebc 5bf6 cbbd 7434 a1be
000001f0: 3de5 4ebd df1a a03d de58 083e c6c1 6ebd
00000200: ccdb 6f3c b6af 563d 7826 89bd 96ae 593d
00000210: fcd7 413d 253e 3a3e dc73 3bbb e072 7e3b
00000220: ad8a 8c3e ce1b 213d b7e0 793c df96 2dbb
00000230: 4ad7 edbb 2f92 c6bd acfb 953c b262 a0bb
00000240: 0316 abbd bc98 8ebd 5bb5 b63b 3dd6 c2bd
00000250: 8611 ab3c 8364 ab3d 7911 a03d 4935 47bd
00000260: cff4 6d3d e315 ecbd 727b e03d a8c8 853c
00000270: d90f b33e 6194 f73a 8787 f63d 84f8 bc3c
00000280: 3cf9 87bb 770f 843e d7a7 41be 380c b2bd
00000290: 9071 093e 13eb 18be 45ee b63c e989 e9be
000002a0: c99d b9bd 7e2e 783e c7e4 dfbf 2cf2 23bc
000002b0: f5c6 d5bd a1f6 c5bb 46dc 50be 956f 3a3e
000002c0: e4c5 2d3c a9c6 99bd 311d 283e daf2 acbd
000002d0: ab4f 9ebc 6615 623e 181d 01be e2c8 13be
000002e0: 7d50 54bc afa6 8f3c af3e ab3d ed72 1a3d
000002f0: 968e 60be 9fd1 8cbd 4552 4ebe cc3b 993d
00000300: 562a 903f 5ed4 98bd 7d77 eb3e cc11 a83b
00000310: 25db dbbd 1da5 a0bd 1acc 1f3e eadf 093e
00000320: 3231 0c3e 8427 3fbe 3882 053d 38a8 ba3d
00000330: 6d5f dbba a962 66bd c573 0d3e ca87 b0bc
00000340: ee3b 9d3d 9503 ed3c e23f 0e3e ded9 ec3e
00000350: 999e b5bd 5c80 05be 8d44 c43d 11c2 3c3e
00000360: 6564 19be 56d9 07bb 3c4d 0b3e dd5c 743d
00000370: a8cb 9e3d fbcd fabd 9fb5 3cbe 4f90 c73c
00000380: bdcb b0bd 70d8 35bd ed38 6bbe 9595 fb3c
00000390: d62e 67be 03a7 153b 8ffd 473d 302f 953d
000003a0: 3d36 393d 1275 f4bd 86f7 a03a 69b7 9fbd
000003b0: 25af cd3d ae26 44be 85c9 3cbc 4205 26be
000003c0: ecf9 bbbe 3dfc 9a3d d389 803c 22dc 873d
000003d0: c3be e0bd e117 6a3d c20f 2a3d f304 fbbd
000003e0: 9ea5 bc3d f437 0f3d fbe2 153e 2355 febb
000003f0: 9c82 5a3e f37b a03e ce97 e73e 848c 2e3e
-0.26704362 -0.037329663 -0.12695079 -0.10449237 0.0029943797 0.14769617 -0.110434465 -0.13544616
-0.065284625 0.102063835 0.6713284 -0.16102564 0.031185273 0.0034313065 -0.12514459 -0.2224177
0.15520819 -0.0022312952 -0.09606414 0.017884737 -0.6097797 -0.004554033 -0.16737698 -0.1353042
0.048217434 -0.18260626 -0.17417714 0.012353443 -0.00013814805 -0.026858568 -0.04125359 0.23918068
-0.015072829 0.013632582 0.039859783 -0.2875373 0.18490742 -0.05351198 0.038999695 -0.010717913
0.008103156 -0.06330701 -0.044384703 -0.055756122 -0.098481074 0.07386107 0.058990333 0.17768438
0.0081162155 -0.0032966621 -0.27270165 0.23196056 0.3837127 0.0027723927 0.2005499 -0.09354486
0.08902719 -0.25747266 -0.038235765 0.14623235 -0.14624096 0.005240033 0.07136799 0.24504691
0.0077701043 0.1959275 0.0016990079 -0.12594812 0.061852407 0.005560045 -0.041946717 0.08936171
-0.14529844 0.100793906 0.2203428 0.11972993 -0.064384446 0.27602986 0.006962902 -0.007817511
0.057278402 -0.049844567 -0.013893246 -0.004254391 -0.006082191 -0.16350187 0.16571774 0.014860515
-0.060923275 -0.0010899913 -0.027474089 0.18269354 -0.042807862 0.23734218 -0.0026682832 0.12044915
-0.0654786 -0.041398227 0.07970343 -0.06124039 -0.08721968 0.1145633 -0.0005447062 0.09824394
0.07767959 -0.063234426 -0.09664888 -0.01205181 -0.31068495 1.2368896 0.0024714312 0.013623065
0.21489103 0.15531062 0.1622712 -0.09112408 -0.07643625 0.005985397 0.0013936975 0.060212176
0.042914774 -0.01932718 -0.09959098 -0.3148533 -0.050511587 0.07817625 0.1331515 -0.058290266
0.014639806 0.052413665 -0.066967905 0.053145014 0.04732512 0.18187769 -0.0028602993 0.0038825795
0.2744955 0.039333157 0.01525133 -0.0026487631 -0.0072583305 -0.09695851 0.018308483 -0.004894578
-0.08353808 -0.069627255 0.0055758185 -0.09513519 0.02088238 0.083687805 0.07815833 -0.0486348
0.058094796 -0.11527612 0.10961045 0.016331032 0.34973028 0.0018888825 0.120375685 0.02306772
-0.004149584 0.2579305 -0.18911682 -0.08693737 0.13422227 -0.14933424 0.022330413 -0.4561303
-0.09063298 0.24236485 -1.7491692 -0.010006469 -0.10438339 -0.0060413633 -0.20396528 0.18206628
0.010606263 -0.075085945 0.16417386 -0.08444758 -0.019325098 0.22078475 -0.12608755 -0.144321
-0.012958643 0.017535536 0.08361565 0.037707258 -0.21929392 -0.068759196 -0.20148571 0.074821085
1.126292 -0.07462381 0.459896 0.0051290747 -0.10735158 -0.07843993 0.15605202 0.13464323
0.13690642 -0.18667418 0.03259489 0.091141164 -0.0016736813 -0.056246433 0.13813694 -0.021549124
0.07677446 0.028932372 0.13891557 0.4625997 -0.08868141 -0.13037246 0.095833875 0.18433405
-0.14979704 -0.0020728908 0.13603681 0.059658874 0.07753688 -0.12246319 -0.18428658 0.024360804
-0.0863261 -0.044395864 -0.22970934 0.030710975 -0.2257646 0.0022835142 0.048825797 0.07284391
0.04521774 -0.11936392 0.0012280799 -0.077986546 0.10043172 -0.1915538 -0.011522655 -0.16212943
-0.36714113 0.07567642 0.01569072 0.06633784 -0.10973885 0.05715168 0.041518934 -0.12256803
0.092112765 0.03496547 0.14637367 -0.007761614 0.21338886 0.31344566 0.45233005 0.1704579

bias f4 [2]
00000000: 31df c63b 3ce6 0ebd
0.006069087 -0.034887537

weight f4 [2, 256]
00000000: 92d6 c3bd 522b d53c 4db7 58bc 5391 20be
00000010: a5e2 773c effa 47be e705 41be 8c79 1dbd
00000020: 41df 0fbe 9c80 08be a3da 9d3d 6359 293d
00000030: b5d8 4fbd 9f7e bdbe 9a32 f2bd 9180 693c
00000040: b812 32be 8802 663c a05d f3bd 369d 90bd
00000050: 8f1a e73e 4152 d3bd 63a8 17be d052 e63d
00000060: 218c 1abe b6fa c9bd e706 c9ba 8bac 4dbe
00000070: fe74 62be 458b 02bd bd46 87be fd9e 50bc
00000080: d22c 06be c50c c83c 2785 bebd d0e6 4b3e
00000090: 8f3b c6bc 9941 12be f858 b6be 4a5b 9cbe
000000a0: 0cbe bbbe 007e 383e 333f 0cbc 2ee6 fc3d
000000b0: 8775 02be 351d 5bbe 16f9 013e 4d2e f83d
000000c0: a673 c9be 767c 95bc 8498 973d c743 fd3d
000000d0: bbae de3b 3206 07be 60ca 8ebd 7fb7 36be
000000e0: 638a 25be d147 09be 503a 73be b030 e6bc
000000f0: e471 0abe b61c 1bbe 0c33 34be 8ace cabd
00000100: 06ac 7abd 20d4 fbbc f057 d7be c052 fdbd
00000110: f287 79be 4835 c9be a2e2 053d 8c1a 313e
00000120: 18ab 44bd 6175 fdbc c0a8 4a3e 28f5 20be
00000130: 4438 e73d 9b73 cc3e 74a9 bf3c 07c7 9a3d
00000140: 6e6c 9d3c d0e5 fabc dd34 8a3c 3277 a4ba
00000150: 562a 92bb fc9f d03c db1f 7fbe 78e7 30bc
00000160: 0392 04bf a971 afbe d935 8bbe 4872 3b3d
00000170: ad97 adbe 3722 82b9 9446 c73b 4a82 bbbd
00000180: 0cac 4dbc d5cd fe3d 1705 063e a12d aebd
00000190: c94f 4b3e 5395 923d 6c5e fbbd 5b64 8fbd
000001a0: 9a99 4f3e 0000 9abe b58b 12be 0172 92be
000001b0: 45a7 0a3e 2714 ac3f 6894 c9be 3fac bfbe
000001c0: 83dc 1bbe eb53 1bbc 4715 8ebd 0fd4 59be
000001d0: 1692 43be c604 e5be c8e5 38bd e334 2f3d
000001e0: 5532 163e e853 d93d 4d83 05be b7df 413d
000001f0: 923f d7bd c440 8cbd b62a 19bc e963 88bc
00000200: 3c2b acbd 48de 70bd 21e7 fcbe ace4 79bc
00000210: 2806 22be a0e2 c83d 6d6a df3d fdc4 e1ba
00000220: 98d8 10be c4c7 06bd 92e0 8abe d687 24bd
00000230: 87de bcbb 6d8d 04bd a7bd c8be 114f a03d
00000240: 00c8 15be 50e0 c53d fa45 5abe 17b1 233e
00000250: 5348 34bc c851 e0bd ba8e 59be 432a 3ebe
00000260: d1f2 c8bd ffe3 afbd 2038 893d 838a fe3a
00000270: 30f3 b13e cc1f b9be 0a92 70be f608 f7bd
00000280: cb0f 71be 9ccb f3bd 8ab8 edbd a8b4 613d
00000290: e3c0 ba3d f14a dc3c 3600 983c 3c07 88be
000002a0: 1f3b ee3b 38cb 983e c2a9 1740 30b7 cdbd
000002b0: f9f9 17be ae8a 57be fbc7 bcbd cf01 053d
000002c0: a55c 07bf f220 0abb a5e6 703b 736b 2ebd
000002d0: 9d08 e0bb 3ae9 2a3d 0bfe 75be 6397 92bd
000002e0: 0ddd bbbd 8961 31bd 6c1a debd 8472 0d3d
000002f0: 5abd 1a3c 5f51 a8be 39ff bd3d 925a 5e3c
00000300: 1311 053f e3f1 bebd 9764 17bd 6bf5 abbe
00000310: b448 73bd 14c2 a0bd 4de0 2ebd a0d2 193d
00000320: f5b5 dc3b 738c 8e3d 74b8 2cbe b4d6 18bd
00000330: af91 50ba 4d97 0bbe 0861 063e f15a 28be
00000340: 2b29 62be 25d6 c2bd 7c30 abbd dbae 7c3d
00000350: fbce 0bbd fd41 8f3d b101 033d f67b 0f3e
00000360: f3fb a5bd c86b 20be 4048 a73d 83ac 61bd
00000370: 1aa0 b6bd 495c efbb 0bd9 91bd 475f 593c
00000380: 56b7 dbbd 614b 643d 774f 1b3e c979 9bbc
00000390: 576a 83bd fa84 ebba a790 92bd 1884 fd3c
000003a0: cdb6 09be 183a ac3d 8fb9 c1bc bbbb cebd
000003b0: 0c75 5dbe 9456 0dbe d6c2 c4be 276b c0bc
000003c0: 0d6d c53e 00b3 0cbe 113c 12be 40d0 e73d
000003d0: 6631 76bd 740f e13d c9cc e0be 277c e8bc
000003e0: ec74 2fbe fb38 1abd 83c4 5fbd c160 b5be
000003f0: 91ae c13c 8f66 a13e 8708 943e ddae 50bd
-0.095624104 0.026021633 -0.013227296 -0.15680437 0.01512972 -0.19529317 -0.18849908 -0.038445994
-0.14050008 -0.1333031 0.07707717 0.04134501 -0.050743777 -0.37010667 -0.11826058 0.014251844
-0.17389953 0.014038689 -0.11883092 -0.070612356 0.4513745 -0.10318423 -0.14810328 0.11246264
-0.15092517 -0.098622724 -0.001533714 -0.20085351 -0.22114941 -0.0318711 -0.26421157 -0.012733218
-0.13103035 0.024420151 -0.093027405 0.19912267 -0.024198322 -0.14282836 -0.35614753 -0.30538398
-0.36668432 0.18016815 -0.00855999 0.12348591 -0.12740146 -0.2139786 0.12692675 0.12118206
-0.39346045 -0.018247824 0.07402137 0.12366443 0.006795732 -0.13185957 -0.06972194 -0.17843436
-0.16166072 -0.13406302 -0.23752713 -0.028099388 -0.13520008 -0.15147671 -0.17597598 -0.099026754
-0.06119921 -0.030740798 -0.42059278 -0.12369299 -0.24368265 -0.39298463 0.032686837 0.17295283
-0.04801473 -0.03093976 0.19790936 -0.1571852 0.11290029 0.3993195 0.023396231 0.07557493
0.019216742 -0.030627161 0.01687091 -0.001254773 -0.0044606132 0.025466911 -0.24914496 -0.010797374
-0.51785296 -0.34266403 -0.2718952 0.045763284 -0.33904782 -0.00024821024 0.0060814116 -0.0915571
-0.012553226 0.12441603 0.13087879 -0.08504797 0.19854654 0.071573876 -0.12273869 -0.07001563
0.20273438 -0.30078125 -0.14311107 -0.28602603 0.13540371 1.344365 -0.39371037 -0.374361
-0.15220837 -0.009480457 -0.06937652 -0.212723 -0.19098696 -0.44730204 -0.04514101 0.042775046
0.14667638 0.10611707 -0.13038369 0.04733249 -0.10510172 -0.068482906 -0.009348562 -0.016649203
-0.08406684 -0.058805734 -0.49395087 -0.0152522735 -0.15822661 0.0980885 0.10908971 -0.0017224845
-0.14145124 -0.032905355 -0.2712446 -0.040168606 -0.005763832 -0.032361437 -0.39207193 0.07827581
-0.14627075 0.09661925 -0.21315756 0.15985523 -0.011003572 -0.109530985 -0.21245852 -0.18570809
-0.098119386 -0.08588409 0.06700158 0.0019419942 0.3475585 -0.36157072 -0.2349321 -0.12062256
-0.23541181 -0.1190407 -0.11607464 0.055103928 0.091188215 0.026891204 0.018554788 -0.2656802
0.0072702314 0.29842544 2.3697362 -0.10044706 -0.14841451 -0.21048996 -0.09217831 0.032472428
-0.5287574 -0.0021076766 0.0036758569 -0.04258294 -0.0068369643 0.04172633 -0.24022691 -0.07157781
-0.091730215 -0.043305907 -0.10844883 0.03453304 0.009444559 -0.3287458 0.092771955 0.013571398
0.5197918 -0.0932348 -0.036961164 -0.33585677 -0.059395507 -0.078495175 -0.04269438 0.037554383
0.006735558 0.06960382 -0.16867238 -0.03731413 -0.0007956279 -0.13631935 0.13122952 -0.16440941
-0.22086017 -0.09513501 -0.08358857 0.061690193 -0.03413294 0.06995008 0.031984035 0.14012131
-0.08104696 -0.15666115 0.081680775 -0.05509616 -0.08917256 -0.0073047024 -0.07121476 0.013267345
-0.10728328 0.05573595 0.15167032 -0.01897897 -0.06416767 -0.0017968707 -0.071564965 0.030946776
-0.13448639 0.08409518 -0.023648052 -0.100944005 -0.21626681 -0.13802558 -0.38429898 -0.023488594
0.38559762 -0.13740158 -0.14280726 0.113190174 -0.060105704 0.109892756 -0.4390624 -0.028379513
-0.17134446 -0.037651997 -0.054630768 -0.3542538 0.02364281 0.31523558 0.28912756 -0.050948013

bias f4 [2]
00000000: 4c72 4abf e79a 52bf
-0.79080653 -0.8226761
